Dataset loaded successfully!
Model: "sequential"
_________________________________________________________________
 Layer (type)                Output Shape              Param #   
=================================================================
 lstm (LSTM)                 (None, 1, 64)            28672     
                                                                 
 dropout (Dropout)           (None, 1, 64)            0         
                                                                 
 lstm_1 (LSTM)               (None, 32)              12416     
                                                                 
 dropout_1 (Dropout)         (None, 32)              0         
                                                                 
 dense (Dense)               (None, 16)              528       
                                                                 
 dense_1 (Dense)             (None, 6)               102       
                                                                 
=================================================================
Total params: 41,718
Trainable params: 41,718
Non-trainable params: 0
_________________________________________________________________
Epoch 1/10
125/125 [==============================] - 5s 20ms/step - loss: 1.5028 - accuracy: 0.4301 - val_loss: 1.2015 - val_accuracy: 0.5632
…
